yer (type)                     Output Shape          Param #     Connected to                     
====================================================================================================
input_1 (InputLayer)             (None, 50, 50, 1)     0                                            
____________________________________________________________________________________________________
conv2d_1 (Conv2D)                (None, 25, 25, 64)    3200        input_1[0][0]                    
____________________________________________________________________________________________________
batch_normalization_1 (BatchNorm (None, 25, 25, 64)    256         conv2d_1[0][0]                   
____________________________________________________________________________________________________
activation_1 (Activation)        (None, 25, 25, 64)    0           batch_normalization_1[0][0]      
____________________________________________________________________________________________________
max_pooling2d_1 (MaxPooling2D)   (None, 13, 13, 64)    0           activation_1[0][0]               
____________________________________________________________________________________________________
conv2d_2 (Conv2D)                (None, 13, 13, 64)    4160        max_pooling2d_1[0][0]            
____________________________________________________________________________________________________
batch_normalization_2 (BatchNorm (None, 13, 13, 64)    256         conv2d_2[0][0]                   
____________________________________________________________________________________________________
activation_2 (Activation)        (None, 13, 13, 64)    0           batch_normalization_2[0][0]      
____________________________________________________________________________________________________
conv2d_3 (Conv2D)                (None, 13, 13, 64)    36928       activation_2[0][0]               
____________________________________________________________________________________________________
batch_normalization_3 (BatchNorm (None, 13, 13, 64)    256         conv2d_3[0][0]                   
____________________________________________________________________________________________________
activation_3 (Activation)        (None, 13, 13, 64)    0           batch_normalization_3[0][0]      
____________________________________________________________________________________________________
conv2d_5 (Conv2D)                (None, 13, 13, 256)   16640       max_pooling2d_1[0][0]            
____________________________________________________________________________________________________
conv2d_4 (Conv2D)                (None, 13, 13, 256)   16640       activation_3[0][0]               
____________________________________________________________________________________________________
add_1 (Add)                      (None, 13, 13, 256)   0           conv2d_5[0][0]                   
                                                                   conv2d_4[0][0]                   
____________________________________________________________________________________________________
batch_normalization_4 (BatchNorm (None, 13, 13, 256)   1024        add_1[0][0]                      
____________________________________________________________________________________________________
activation_4 (Activation)        (None, 13, 13, 256)   0           batch_normalization_4[0][0]      
____________________________________________________________________________________________________
conv2d_6 (Conv2D)                (None, 13, 13, 64)    16448       activation_4[0][0]               
____________________________________________________________________________________________________
batch_normalization_5 (BatchNorm (None, 13, 13, 64)    256         conv2d_6[0][0]                   
____________________________________________________________________________________________________
activation_5 (Activation)        (None, 13, 13, 64)    0           batch_normalization_5[0][0]      
____________________________________________________________________________________________________
conv2d_7 (Conv2D)                (None, 13, 13, 64)    36928       activation_5[0][0]               
____________________________________________________________________________________________________
batch_normalization_6 (BatchNorm (None, 13, 13, 64)    256         conv2d_7[0][0]                   
____________________________________________________________________________________________________
activation_6 (Activation)        (None, 13, 13, 64)    0           batch_normalization_6[0][0]      
____________________________________________________________________________________________________
conv2d_8 (Conv2D)                (None, 13, 13, 256)   16640       activation_6[0][0]               
____________________________________________________________________________________________________
add_2 (Add)                      (None, 13, 13, 256)   0           add_1[0][0]                      
                                                                   conv2d_8[0][0]                   
____________________________________________________________________________________________________
batch_normalization_7 (BatchNorm (None, 13, 13, 256)   1024        add_2[0][0]                      
____________________________________________________________________________________________________
activation_7 (Activation)        (None, 13, 13, 256)   0           batch_normalization_7[0][0]      
____________________________________________________________________________________________________
conv2d_9 (Conv2D)                (None, 13, 13, 64)    16448       activation_7[0][0]               
____________________________________________________________________________________________________
batch_normalization_8 (BatchNorm (None, 13, 13, 64)    256         conv2d_9[0][0]                   
____________________________________________________________________________________________________
activation_8 (Activation)        (None, 13, 13, 64)    0           batch_normalization_8[0][0]      
____________________________________________________________________________________________________
conv2d_10 (Conv2D)               (None, 13, 13, 64)    36928       activation_8[0][0]               
____________________________________________________________________________________________________
batch_normalization_9 (BatchNorm (None, 13, 13, 64)    256         conv2d_10[0][0]                  
____________________________________________________________________________________________________
activation_9 (Activation)        (None, 13, 13, 64)    0           batch_normalization_9[0][0]      
____________________________________________________________________________________________________
conv2d_11 (Conv2D)               (None, 13, 13, 256)   16640       activation_9[0][0]               
____________________________________________________________________________________________________
add_3 (Add)                      (None, 13, 13, 256)   0           add_2[0][0]                      
                                                                   conv2d_11[0][0]                  
____________________________________________________________________________________________________
batch_normalization_10 (BatchNor (None, 13, 13, 256)   1024        add_3[0][0]                      
____________________________________________________________________________________________________
activation_10 (Activation)       (None, 13, 13, 256)   0           batch_normalization_10[0][0]     
____________________________________________________________________________________________________
conv2d_12 (Conv2D)               (None, 7, 7, 128)     32896       activation_10[0][0]              
____________________________________________________________________________________________________
batch_normalization_11 (BatchNor (None, 7, 7, 128)     512         conv2d_12[0][0]                  
____________________________________________________________________________________________________
activation_11 (Activation)       (None, 7, 7, 128)     0           batch_normalization_11[0][0]     
____________________________________________________________________________________________________
conv2d_13 (Conv2D)               (None, 7, 7, 128)     147584      activation_11[0][0]              
____________________________________________________________________________________________________
batch_normalization_12 (BatchNor (None, 7, 7, 128)     512         conv2d_13[0][0]                  
____________________________________________________________________________________________________
activation_12 (Activation)       (None, 7, 7, 128)     0           batch_normalization_12[0][0]     
____________________________________________________________________________________________________
conv2d_15 (Conv2D)               (None, 7, 7, 512)     131584      add_3[0][0]                      
____________________________________________________________________________________________________
conv2d_14 (Conv2D)               (None, 7, 7, 512)     66048       activation_12[0][0]              
____________________________________________________________________________________________________
add_4 (Add)                      (None, 7, 7, 512)     0           conv2d_15[0][0]                  
                                                                   conv2d_14[0][0]                  
____________________________________________________________________________________________________
batch_normalization_13 (BatchNor (None, 7, 7, 512)     2048        add_4[0][0]                      
____________________________________________________________________________________________________
activation_13 (Activation)       (None, 7, 7, 512)     0           batch_normalization_13[0][0]     
____________________________________________________________________________________________________
conv2d_16 (Conv2D)               (None, 7, 7, 128)     65664       activation_13[0][0]              
____________________________________________________________________________________________________
batch_normalization_14 (BatchNor (None, 7, 7, 128)     512         conv2d_16[0][0]                  
____________________________________________________________________________________________________
activation_14 (Activation)       (None, 7, 7, 128)     0           batch_normalization_14[0][0]     
____________________________________________________________________________________________________
conv2d_17 (Conv2D)               (None, 7, 7, 128)     147584      activation_14[0][0]              
____________________________________________________________________________________________________
batch_normalization_15 (BatchNor (None, 7, 7, 128)     512         conv2d_17[0][0]                  
____________________________________________________________________________________________________
activation_15 (Activation)       (None, 7, 7, 128)     0           batch_normalization_15[0][0]     
____________________________________________________________________________________________________
conv2d_18 (Conv2D)               (None, 7, 7, 512)     66048       activation_15[0][0]              
____________________________________________________________________________________________________
add_5 (Add)                      (None, 7, 7, 512)     0           add_4[0][0]                      
                                                                   conv2d_18[0][0]                  
____________________________________________________________________________________________________
batch_normalization_16 (BatchNor (None, 7, 7, 512)     2048        add_5[0][0]                      
____________________________________________________________________________________________________
activation_16 (Activation)       (None, 7, 7, 512)     0           batch_normalization_16[0][0]     
____________________________________________________________________________________________________
conv2d_19 (Conv2D)               (None, 7, 7, 128)     65664       activation_16[0][0]              
____________________________________________________________________________________________________
batch_normalization_17 (BatchNor (None, 7, 7, 128)     512         conv2d_19[0][0]                  
____________________________________________________________________________________________________
activation_17 (Activation)       (None, 7, 7, 128)     0           batch_normalization_17[0][0]     
____________________________________________________________________________________________________
conv2d_20 (Conv2D)               (None, 7, 7, 128)     147584      activation_17[0][0]              
____________________________________________________________________________________________________
batch_normalization_18 (BatchNor (None, 7, 7, 128)     512         conv2d_20[0][0]                  
____________________________________________________________________________________________________
activation_18 (Activation)       (None, 7, 7, 128)     0           batch_normalization_18[0][0]     
____________________________________________________________________________________________________
conv2d_21 (Conv2D)               (None, 7, 7, 512)     66048       activation_18[0][0]              
____________________________________________________________________________________________________
add_6 (Add)                      (None, 7, 7, 512)     0           add_5[0][0]                      
                                                                   conv2d_21[0][0]                  
____________________________________________________________________________________________________
batch_normalization_19 (BatchNor (None, 7, 7, 512)     2048        add_6[0][0]                      
____________________________________________________________________________________________________
activation_19 (Activation)       (None, 7, 7, 512)     0           batch_normalization_19[0][0]     
____________________________________________________________________________________________________
conv2d_22 (Conv2D)               (None, 7, 7, 128)     65664       activation_19[0][0]              
____________________________________________________________________________________________________
batch_normalization_20 (BatchNor (None, 7, 7, 128)     512         conv2d_22[0][0]                  
____________________________________________________________________________________________________
activation_20 (Activation)       (None, 7, 7, 128)     0           batch_normalization_20[0][0]     
____________________________________________________________________________________________________
conv2d_23 (Conv2D)               (None, 7, 7, 128)     147584      activation_20[0][0]              
____________________________________________________________________________________________________
batch_normalization_21 (BatchNor (None, 7, 7, 128)     512         conv2d_23[0][0]                  
____________________________________________________________________________________________________
activation_21 (Activation)       (None, 7, 7, 128)     0           batch_normalization_21[0][0]     
____________________________________________________________________________________________________
conv2d_24 (Conv2D)               (None, 7, 7, 512)     66048       activation_21[0][0]              
____________________________________________________________________________________________________
add_7 (Add)                      (None, 7, 7, 512)     0           add_6[0][0]                      
                                                                   conv2d_24[0][0]                  
____________________________________________________________________________________________________
batch_normalization_22 (BatchNor (None, 7, 7, 512)     2048        add_7[0][0]                      
____________________________________________________________________________________________________
activation_22 (Activation)       (None, 7, 7, 512)     0           batch_normalization_22[0][0]     
____________________________________________________________________________________________________
conv2d_25 (Conv2D)               (None, 4, 4, 256)     131328      activation_22[0][0]              
____________________________________________________________________________________________________
batch_normalization_23 (BatchNor (None, 4, 4, 256)     1024        conv2d_25[0][0]                  
____________________________________________________________________________________________________
activation_23 (Activation)       (None, 4, 4, 256)     0           batch_normalization_23[0][0]     
____________________________________________________________________________________________________
conv2d_26 (Conv2D)               (None, 4, 4, 256)     590080      activation_23[0][0]              
____________________________________________________________________________________________________
batch_normalization_24 (BatchNor (None, 4, 4, 256)     1024        conv2d_26[0][0]                  
____________________________________________________________________________________________________
activation_24 (Activation)       (None, 4, 4, 256)     0           batch_normalization_24[0][0]     
____________________________________________________________________________________________________
conv2d_28 (Conv2D)               (None, 4, 4, 1024)    525312      add_7[0][0]                      
____________________________________________________________________________________________________
conv2d_27 (Conv2D)               (None, 4, 4, 1024)    263168      activation_24[0][0]              
____________________________________________________________________________________________________
add_8 (Add)                      (None, 4, 4, 1024)    0           conv2d_28[0][0]                  
                                                                   conv2d_27[0][0]                  
____________________________________________________________________________________________________
batch_normalization_25 (BatchNor (None, 4, 4, 1024)    4096        add_8[0][0]                      
____________________________________________________________________________________________________
activation_25 (Activation)       (None, 4, 4, 1024)    0           batch_normalization_25[0][0]     
____________________________________________________________________________________________________
conv2d_29 (Conv2D)               (None, 4, 4, 256)     262400      activation_25[0][0]              
____________________________________________________________________________________________________
batch_normalization_26 (BatchNor (None, 4, 4, 256)     1024        conv2d_29[0][0]                  
____________________________________________________________________________________________________
activation_26 (Activation)       (None, 4, 4, 256)     0           batch_normalization_26[0][0]     
____________________________________________________________________________________________________
conv2d_30 (Conv2D)               (None, 4, 4, 256)     590080      activation_26[0][0]              
____________________________________________________________________________________________________
batch_normalization_27 (BatchNor (None, 4, 4, 256)     1024        conv2d_30[0][0]                  
____________________________________________________________________________________________________
activation_27 (Activation)       (None, 4, 4, 256)     0           batch_normalization_27[0][0]     
____________________________________________________________________________________________________
conv2d_31 (Conv2D)               (None, 4, 4, 1024)    263168      activation_27[0][0]              
____________________________________________________________________________________________________
add_9 (Add)                      (None, 4, 4, 1024)    0           add_8[0][0]                      
                                                                   conv2d_31[0][0]                  
____________________________________________________________________________________________________
batch_normalization_28 (BatchNor (None, 4, 4, 1024)    4096        add_9[0][0]                      
____________________________________________________________________________________________________
activation_28 (Activation)       (None, 4, 4, 1024)    0           batch_normalization_28[0][0]     
____________________________________________________________________________________________________
conv2d_32 (Conv2D)               (None, 4, 4, 256)     262400      activation_28[0][0]              
____________________________________________________________________________________________________
batch_normalization_29 (BatchNor (None, 4, 4, 256)     1024        conv2d_32[0][0]                  
____________________________________________________________________________________________________
activation_29 (Activation)       (None, 4, 4, 256)     0           batch_normalization_29[0][0]     
____________________________________________________________________________________________________
conv2d_33 (Conv2D)               (None, 4, 4, 256)     590080      activation_29[0][0]              
____________________________________________________________________________________________________
batch_normalization_30 (BatchNor (None, 4, 4, 256)     1024        conv2d_33[0][0]                  
____________________________________________________________________________________________________
activation_30 (Activation)       (None, 4, 4, 256)     0           batch_normalization_30[0][0]     
____________________________________________________________________________________________________
conv2d_34 (Conv2D)               (None, 4, 4, 1024)    263168      activation_30[0][0]              
____________________________________________________________________________________________________
add_10 (Add)                     (None, 4, 4, 1024)    0           add_9[0][0]                      
                                                                   conv2d_34[0][0]                  
____________________________________________________________________________________________________
batch_normalization_31 (BatchNor (None, 4, 4, 1024)    4096        add_10[0][0]                     
____________________________________________________________________________________________________
activation_31 (Activation)       (None, 4, 4, 1024)    0           batch_normalization_31[0][0]     
____________________________________________________________________________________________________
conv2d_35 (Conv2D)               (None, 4, 4, 256)     262400      activation_31[0][0]              
____________________________________________________________________________________________________
batch_normalization_32 (BatchNor (None, 4, 4, 256)     1024        conv2d_35[0][0]                  
____________________________________________________________________________________________________
activation_32 (Activation)       (None, 4, 4, 256)     0           batch_normalization_32[0][0]     
____________________________________________________________________________________________________
conv2d_36 (Conv2D)               (None, 4, 4, 256)     590080      activation_32[0][0]              
____________________________________________________________________________________________________
batch_normalization_33 (BatchNor (None, 4, 4, 256)     1024        conv2d_36[0][0]                  
____________________________________________________________________________________________________
activation_33 (Activation)       (None, 4, 4, 256)     0           batch_normalization_33[0][0]     
____________________________________________________________________________________________________
conv2d_37 (Conv2D)               (None, 4, 4, 1024)    263168      activation_33[0][0]              
____________________________________________________________________________________________________
add_11 (Add)                     (None, 4, 4, 1024)    0           add_10[0][0]                     
                                                                   conv2d_37[0][0]                  
____________________________________________________________________________________________________
batch_normalization_34 (BatchNor (None, 4, 4, 1024)    4096        add_11[0][0]                     
____________________________________________________________________________________________________
activation_34 (Activation)       (None, 4, 4, 1024)    0           batch_normalization_34[0][0]     
____________________________________________________________________________________________________
conv2d_38 (Conv2D)               (None, 4, 4, 256)     262400      activation_34[0][0]              
____________________________________________________________________________________________________
batch_normalization_35 (BatchNor (None, 4, 4, 256)     1024        conv2d_38[0][0]                  
____________________________________________________________________________________________________
activation_35 (Activation)       (None, 4, 4, 256)     0           batch_normalization_35[0][0]     
____________________________________________________________________________________________________
conv2d_39 (Conv2D)               (None, 4, 4, 256)     590080      activation_35[0][0]              
____________________________________________________________________________________________________
batch_normalization_36 (BatchNor (None, 4, 4, 256)     1024        conv2d_39[0][0]                  
____________________________________________________________________________________________________
activation_36 (Activation)       (None, 4, 4, 256)     0           batch_normalization_36[0][0]     
____________________________________________________________________________________________________
conv2d_40 (Conv2D)               (None, 4, 4, 1024)    263168      activation_36[0][0]              
____________________________________________________________________________________________________
add_12 (Add)                     (None, 4, 4, 1024)    0           add_11[0][0]                     
                                                                   conv2d_40[0][0]                  
____________________________________________________________________________________________________
batch_normalization_37 (BatchNor (None, 4, 4, 1024)    4096        add_12[0][0]                     
____________________________________________________________________________________________________
activation_37 (Activation)       (None, 4, 4, 1024)    0           batch_normalization_37[0][0]     
____________________________________________________________________________________________________
conv2d_41 (Conv2D)               (None, 4, 4, 256)     262400      activation_37[0][0]              
____________________________________________________________________________________________________
batch_normalization_38 (BatchNor (None, 4, 4, 256)     1024        conv2d_41[0][0]                  
____________________________________________________________________________________________________
activation_38 (Activation)       (None, 4, 4, 256)     0           batch_normalization_38[0][0]     
____________________________________________________________________________________________________
conv2d_42 (Conv2D)               (None, 4, 4, 256)     590080      activation_38[0][0]              
____________________________________________________________________________________________________
batch_normalization_39 (BatchNor (None, 4, 4, 256)     1024        conv2d_42[0][0]                  
____________________________________________________________________________________________________
activation_39 (Activation)       (None, 4, 4, 256)     0           batch_normalization_39[0][0]     
____________________________________________________________________________________________________
conv2d_43 (Conv2D)               (None, 4, 4, 1024)    263168      activation_39[0][0]              
____________________________________________________________________________________________________
add_13 (Add)                     (None, 4, 4, 1024)    0           add_12[0][0]                     
                                                                   conv2d_43[0][0]                  
____________________________________________________________________________________________________
batch_normalization_40 (BatchNor (None, 4, 4, 1024)    4096        add_13[0][0]                     
____________________________________________________________________________________________________
activation_40 (Activation)       (None, 4, 4, 1024)    0           batch_normalization_40[0][0]     
____________________________________________________________________________________________________
conv2d_44 (Conv2D)               (None, 2, 2, 512)     524800      activation_40[0][0]              
____________________________________________________________________________________________________
batch_normalization_41 (BatchNor (None, 2, 2, 512)     2048        conv2d_44[0][0]                  
____________________________________________________________________________________________________
activation_41 (Activation)       (None, 2, 2, 512)     0           batch_normalization_41[0][0]     
____________________________________________________________________________________________________
conv2d_45 (Conv2D)               (None, 2, 2, 512)     2359808     activation_41[0][0]              
____________________________________________________________________________________________________
batch_normalization_42 (BatchNor (None, 2, 2, 512)     2048        conv2d_45[0][0]                  
____________________________________________________________________________________________________
activation_42 (Activation)       (None, 2, 2, 512)     0           batch_normalization_42[0][0]     
____________________________________________________________________________________________________
conv2d_47 (Conv2D)               (None, 2, 2, 2048)    2099200     add_13[0][0]                     
____________________________________________________________________________________________________
conv2d_46 (Conv2D)               (None, 2, 2, 2048)    1050624     activation_42[0][0]              
____________________________________________________________________________________________________
add_14 (Add)                     (None, 2, 2, 2048)    0           conv2d_47[0][0]                  
                                                                   conv2d_46[0][0]                  
____________________________________________________________________________________________________
batch_normalization_43 (BatchNor (None, 2, 2, 2048)    8192        add_14[0][0]                     
____________________________________________________________________________________________________
activation_43 (Activation)       (None, 2, 2, 2048)    0           batch_normalization_43[0][0]     
____________________________________________________________________________________________________
conv2d_48 (Conv2D)               (None, 2, 2, 512)     1049088     activation_43[0][0]              
____________________________________________________________________________________________________
batch_normalization_44 (BatchNor (None, 2, 2, 512)     2048        conv2d_48[0][0]                  
____________________________________________________________________________________________________
activation_44 (Activation)       (None, 2, 2, 512)     0           batch_normalization_44[0][0]     
____________________________________________________________________________________________________
conv2d_49 (Conv2D)               (None, 2, 2, 512)     2359808     activation_44[0][0]              
____________________________________________________________________________________________________
batch_normalization_45 (BatchNor (None, 2, 2, 512)     2048        conv2d_49[0][0]                  
____________________________________________________________________________________________________
activation_45 (Activation)       (None, 2, 2, 512)     0           batch_normalization_45[0][0]     
____________________________________________________________________________________________________
conv2d_50 (Conv2D)               (None, 2, 2, 2048)    1050624     activation_45[0][0]              
____________________________________________________________________________________________________
add_15 (Add)                     (None, 2, 2, 2048)    0           add_14[0][0]                     
                                                                   conv2d_50[0][0]                  
____________________________________________________________________________________________________
batch_normalization_46 (BatchNor (None, 2, 2, 2048)    8192        add_15[0][0]                     
____________________________________________________________________________________________________
activation_46 (Activation)       (None, 2, 2, 2048)    0           batch_normalization_46[0][0]     
____________________________________________________________________________________________________
conv2d_51 (Conv2D)               (None, 2, 2, 512)     1049088     activation_46[0][0]              
____________________________________________________________________________________________________
batch_normalization_47 (BatchNor (None, 2, 2, 512)     2048        conv2d_51[0][0]                  
____________________________________________________________________________________________________
activation_47 (Activation)       (None, 2, 2, 512)     0           batch_normalization_47[0][0]     
____________________________________________________________________________________________________
conv2d_52 (Conv2D)               (None, 2, 2, 512)     2359808     activation_47[0][0]              
____________________________________________________________________________________________________
batch_normalization_48 (BatchNor (None, 2, 2, 512)     2048        conv2d_52[0][0]                  
____________________________________________________________________________________________________
activation_48 (Activation)       (None, 2, 2, 512)     0           batch_normalization_48[0][0]     
____________________________________________________________________________________________________
conv2d_53 (Conv2D)               (None, 2, 2, 2048)    1050624     activation_48[0][0]              
____________________________________________________________________________________________________
add_16 (Add)                     (None, 2, 2, 2048)    0           add_15[0][0]                     
                                                                   conv2d_53[0][0]                  
____________________________________________________________________________________________________
batch_normalization_49 (BatchNor (None, 2, 2, 2048)    8192        add_16[0][0]                     
____________________________________________________________________________________________________
activation_49 (Activation)       (None, 2, 2, 2048)    0           batch_normalization_49[0][0]     
____________________________________________________________________________________________________
average_pooling2d_1 (AveragePool (None, 1, 1, 2048)    0           activation_49[0][0]              
____________________________________________________________________________________________________
flatten_1 (Flatten)              (None, 2048)          0           average_pooling2d_1[0][0]        
____________________________________________________________________________________________________
dense_1 (Dense)                  (None, 4)             8196        flatten_1[0][0]                  
====================================================================================================
Total params: 23,574,276
Trainable params: 23,528,836
Non-trainable params: 45,440
____________________________________________________________________________________________________
